train_pid_num:74
cuda.device_count:4
model_parameters_num:3367689
DataParallel(
  (module): GMl4STA3glgemcomGRL(
    (Gem): GeM(p=6.5000, eps=1e-06)
    (ReverseLayer): GRL()
    (layer1): BasicConv3d(
      (conv1): Conv3d(1, 32, kernel_size=(3, 3, 3), stride=(1, 1, 1), padding=(1, 1, 1), bias=False)
    )
    (layer2): LocaltemporalAG(
      (conv1): Conv3d(32, 32, kernel_size=(3, 1, 1), stride=(3, 1, 1), bias=False)
    )
    (glo1): BasicConv3d(
      (conv1): Conv3d(32, 64, kernel_size=(3, 3, 3), stride=(1, 1, 1), padding=(1, 1, 1), bias=False)
    )
    (glo2): BasicConv3d(
      (conv1): Conv3d(64, 128, kernel_size=(3, 3, 3), stride=(1, 1, 1), padding=(1, 1, 1), bias=False)
    )
    (glo3): BasicConv3d(
      (conv1): Conv3d(128, 128, kernel_size=(3, 3, 3), stride=(1, 1, 1), padding=(1, 1, 1), bias=False)
    )
    (attn1): STE2(
      (conv1): Conv2d(1, 1, kernel_size=(3, 3), stride=(1, 1), padding=(1, 1), bias=False)
      (conv2): Conv3d(1, 1, kernel_size=(3, 1, 1), stride=(1, 1, 1), padding=(1, 0, 0), bias=False)
    )
    (attn2): STE2(
      (conv1): Conv2d(1, 1, kernel_size=(3, 3), stride=(1, 1), padding=(1, 1), bias=False)
      (conv2): Conv3d(1, 1, kernel_size=(3, 1, 1), stride=(1, 1, 1), padding=(1, 0, 0), bias=False)
    )
    (attn3): STE2(
      (conv1): Conv2d(1, 1, kernel_size=(3, 3), stride=(1, 1), padding=(1, 1), bias=False)
      (conv2): Conv3d(1, 1, kernel_size=(3, 1, 1), stride=(1, 1, 1), padding=(1, 0, 0), bias=False)
    )
    (lateral1): BasicConv3d(
      (conv1): Conv3d(64, 128, kernel_size=(3, 3, 3), stride=(1, 1, 1), padding=(1, 1, 1), bias=False)
    )
    (lateral2): BasicConv3d(
      (conv1): Conv3d(128, 128, kernel_size=(3, 3, 3), stride=(1, 1, 1), padding=(1, 1, 1), bias=False)
    )
    (fc_bin): ParameterList(  (0): Parameter containing: [torch.float32 of size 33x384x128 (GPU 0)])
    (bn2): BatchNorm1d(128, eps=1e-05, momentum=0.1, affine=True, track_running_stats=True)
    (fc2): ParameterList(  (0): Parameter containing: [torch.float32 of size 33x128x74 (GPU 0)])
    (fc_view): ParameterList(  (0): Parameter containing: [torch.float32 of size 33x128x11 (GPU 0)])
  )
)
train_pid_num:74
cuda.device_count:4
model_parameters_num:3367689
DataParallel(
  (module): GMl4STA3glgemcomGRL(
    (Gem): GeM(p=6.5000, eps=1e-06)
    (ReverseLayer): GRL()
    (layer1): BasicConv3d(
      (conv1): Conv3d(1, 32, kernel_size=(3, 3, 3), stride=(1, 1, 1), padding=(1, 1, 1), bias=False)
    )
    (layer2): LocaltemporalAG(
      (conv1): Conv3d(32, 32, kernel_size=(3, 1, 1), stride=(3, 1, 1), bias=False)
    )
    (glo1): BasicConv3d(
      (conv1): Conv3d(32, 64, kernel_size=(3, 3, 3), stride=(1, 1, 1), padding=(1, 1, 1), bias=False)
    )
    (glo2): BasicConv3d(
      (conv1): Conv3d(64, 128, kernel_size=(3, 3, 3), stride=(1, 1, 1), padding=(1, 1, 1), bias=False)
    )
    (glo3): BasicConv3d(
      (conv1): Conv3d(128, 128, kernel_size=(3, 3, 3), stride=(1, 1, 1), padding=(1, 1, 1), bias=False)
    )
    (attn1): STE2(
      (conv1): Conv2d(1, 1, kernel_size=(3, 3), stride=(1, 1), padding=(1, 1), bias=False)
      (conv2): Conv3d(1, 1, kernel_size=(3, 1, 1), stride=(1, 1, 1), padding=(1, 0, 0), bias=False)
    )
    (attn2): STE2(
      (conv1): Conv2d(1, 1, kernel_size=(3, 3), stride=(1, 1), padding=(1, 1), bias=False)
      (conv2): Conv3d(1, 1, kernel_size=(3, 1, 1), stride=(1, 1, 1), padding=(1, 0, 0), bias=False)
    )
    (attn3): STE2(
      (conv1): Conv2d(1, 1, kernel_size=(3, 3), stride=(1, 1), padding=(1, 1), bias=False)
      (conv2): Conv3d(1, 1, kernel_size=(3, 1, 1), stride=(1, 1, 1), padding=(1, 0, 0), bias=False)
    )
    (lateral1): BasicConv3d(
      (conv1): Conv3d(64, 128, kernel_size=(3, 3, 3), stride=(1, 1, 1), padding=(1, 1, 1), bias=False)
    )
    (lateral2): BasicConv3d(
      (conv1): Conv3d(128, 128, kernel_size=(3, 3, 3), stride=(1, 1, 1), padding=(1, 1, 1), bias=False)
    )
    (fc_bin): ParameterList(  (0): Parameter containing: [torch.float32 of size 33x384x128 (GPU 0)])
    (bn2): BatchNorm1d(128, eps=1e-05, momentum=0.1, affine=True, track_running_stats=True)
    (fc2): ParameterList(  (0): Parameter containing: [torch.float32 of size 33x128x74 (GPU 0)])
    (fc_view): ParameterList(  (0): Parameter containing: [torch.float32 of size 33x128x11 (GPU 0)])
  )
)
train_pid_num:74
cuda.device_count:4
model_parameters_num:3367689
DataParallel(
  (module): GMl4STA3glgemcomGRL(
    (Gem): GeM(p=6.5000, eps=1e-06)
    (ReverseLayer): GRL()
    (layer1): BasicConv3d(
      (conv1): Conv3d(1, 32, kernel_size=(3, 3, 3), stride=(1, 1, 1), padding=(1, 1, 1), bias=False)
    )
    (layer2): LocaltemporalAG(
      (conv1): Conv3d(32, 32, kernel_size=(3, 1, 1), stride=(3, 1, 1), bias=False)
    )
    (glo1): BasicConv3d(
      (conv1): Conv3d(32, 64, kernel_size=(3, 3, 3), stride=(1, 1, 1), padding=(1, 1, 1), bias=False)
    )
    (glo2): BasicConv3d(
      (conv1): Conv3d(64, 128, kernel_size=(3, 3, 3), stride=(1, 1, 1), padding=(1, 1, 1), bias=False)
    )
    (glo3): BasicConv3d(
      (conv1): Conv3d(128, 128, kernel_size=(3, 3, 3), stride=(1, 1, 1), padding=(1, 1, 1), bias=False)
    )
    (attn1): STE2(
      (conv1): Conv2d(1, 1, kernel_size=(3, 3), stride=(1, 1), padding=(1, 1), bias=False)
      (conv2): Conv3d(1, 1, kernel_size=(3, 1, 1), stride=(1, 1, 1), padding=(1, 0, 0), bias=False)
    )
    (attn2): STE2(
      (conv1): Conv2d(1, 1, kernel_size=(3, 3), stride=(1, 1), padding=(1, 1), bias=False)
      (conv2): Conv3d(1, 1, kernel_size=(3, 1, 1), stride=(1, 1, 1), padding=(1, 0, 0), bias=False)
    )
    (attn3): STE2(
      (conv1): Conv2d(1, 1, kernel_size=(3, 3), stride=(1, 1), padding=(1, 1), bias=False)
      (conv2): Conv3d(1, 1, kernel_size=(3, 1, 1), stride=(1, 1, 1), padding=(1, 0, 0), bias=False)
    )
    (lateral1): BasicConv3d(
      (conv1): Conv3d(64, 128, kernel_size=(3, 3, 3), stride=(1, 1, 1), padding=(1, 1, 1), bias=False)
    )
    (lateral2): BasicConv3d(
      (conv1): Conv3d(128, 128, kernel_size=(3, 3, 3), stride=(1, 1, 1), padding=(1, 1, 1), bias=False)
    )
    (fc_bin): ParameterList(  (0): Parameter containing: [torch.float32 of size 33x384x128 (GPU 0)])
    (bn2): BatchNorm1d(128, eps=1e-05, momentum=0.1, affine=True, track_running_stats=True)
    (fc2): ParameterList(  (0): Parameter containing: [torch.float32 of size 33x128x74 (GPU 0)])
    (fc_view): ParameterList(  (0): Parameter containing: [torch.float32 of size 33x128x11 (GPU 0)])
  )
)
train_pid_num:74
cuda.device_count:4
model_parameters_num:3367689
DataParallel(
  (module): GMl4STA3glgemcomGRL(
    (Gem): GeM(p=6.5000, eps=1e-06)
    (ReverseLayer): GRL()
    (layer1): BasicConv3d(
      (conv1): Conv3d(1, 32, kernel_size=(3, 3, 3), stride=(1, 1, 1), padding=(1, 1, 1), bias=False)
    )
    (layer2): LocaltemporalAG(
      (conv1): Conv3d(32, 32, kernel_size=(3, 1, 1), stride=(3, 1, 1), bias=False)
    )
    (glo1): BasicConv3d(
      (conv1): Conv3d(32, 64, kernel_size=(3, 3, 3), stride=(1, 1, 1), padding=(1, 1, 1), bias=False)
    )
    (glo2): BasicConv3d(
      (conv1): Conv3d(64, 128, kernel_size=(3, 3, 3), stride=(1, 1, 1), padding=(1, 1, 1), bias=False)
    )
    (glo3): BasicConv3d(
      (conv1): Conv3d(128, 128, kernel_size=(3, 3, 3), stride=(1, 1, 1), padding=(1, 1, 1), bias=False)
    )
    (attn1): STE2(
      (conv1): Conv2d(1, 1, kernel_size=(3, 3), stride=(1, 1), padding=(1, 1), bias=False)
      (conv2): Conv3d(1, 1, kernel_size=(3, 1, 1), stride=(1, 1, 1), padding=(1, 0, 0), bias=False)
    )
    (attn2): STE2(
      (conv1): Conv2d(1, 1, kernel_size=(3, 3), stride=(1, 1), padding=(1, 1), bias=False)
      (conv2): Conv3d(1, 1, kernel_size=(3, 1, 1), stride=(1, 1, 1), padding=(1, 0, 0), bias=False)
    )
    (attn3): STE2(
      (conv1): Conv2d(1, 1, kernel_size=(3, 3), stride=(1, 1), padding=(1, 1), bias=False)
      (conv2): Conv3d(1, 1, kernel_size=(3, 1, 1), stride=(1, 1, 1), padding=(1, 0, 0), bias=False)
    )
    (lateral1): BasicConv3d(
      (conv1): Conv3d(64, 128, kernel_size=(3, 3, 3), stride=(1, 1, 1), padding=(1, 1, 1), bias=False)
    )
    (lateral2): BasicConv3d(
      (conv1): Conv3d(128, 128, kernel_size=(3, 3, 3), stride=(1, 1, 1), padding=(1, 1, 1), bias=False)
    )
    (fc_bin): ParameterList(  (0): Parameter containing: [torch.float32 of size 33x384x128 (GPU 0)])
    (bn2): BatchNorm1d(128, eps=1e-05, momentum=0.1, affine=True, track_running_stats=True)
    (fc2): ParameterList(  (0): Parameter containing: [torch.float32 of size 33x128x74 (GPU 0)])
    (fc_view): ParameterList(  (0): Parameter containing: [torch.float32 of size 33x128x11 (GPU 0)])
  )
)
train_pid_num:74
cuda.device_count:4
model_parameters_num:3367689
DataParallel(
  (module): GMl4STA3glgemcomGRL(
    (Gem): GeM(p=6.5000, eps=1e-06)
    (ReverseLayer): GRL()
    (layer1): BasicConv3d(
      (conv1): Conv3d(1, 32, kernel_size=(3, 3, 3), stride=(1, 1, 1), padding=(1, 1, 1), bias=False)
    )
    (layer2): LocaltemporalAG(
      (conv1): Conv3d(32, 32, kernel_size=(3, 1, 1), stride=(3, 1, 1), bias=False)
    )
    (glo1): BasicConv3d(
      (conv1): Conv3d(32, 64, kernel_size=(3, 3, 3), stride=(1, 1, 1), padding=(1, 1, 1), bias=False)
    )
    (glo2): BasicConv3d(
      (conv1): Conv3d(64, 128, kernel_size=(3, 3, 3), stride=(1, 1, 1), padding=(1, 1, 1), bias=False)
    )
    (glo3): BasicConv3d(
      (conv1): Conv3d(128, 128, kernel_size=(3, 3, 3), stride=(1, 1, 1), padding=(1, 1, 1), bias=False)
    )
    (attn1): STE2(
      (conv1): Conv2d(1, 1, kernel_size=(3, 3), stride=(1, 1), padding=(1, 1), bias=False)
      (conv2): Conv3d(1, 1, kernel_size=(3, 1, 1), stride=(1, 1, 1), padding=(1, 0, 0), bias=False)
    )
    (attn2): STE2(
      (conv1): Conv2d(1, 1, kernel_size=(3, 3), stride=(1, 1), padding=(1, 1), bias=False)
      (conv2): Conv3d(1, 1, kernel_size=(3, 1, 1), stride=(1, 1, 1), padding=(1, 0, 0), bias=False)
    )
    (attn3): STE2(
      (conv1): Conv2d(1, 1, kernel_size=(3, 3), stride=(1, 1), padding=(1, 1), bias=False)
      (conv2): Conv3d(1, 1, kernel_size=(3, 1, 1), stride=(1, 1, 1), padding=(1, 0, 0), bias=False)
    )
    (lateral1): BasicConv3d(
      (conv1): Conv3d(64, 128, kernel_size=(3, 3, 3), stride=(1, 1, 1), padding=(1, 1, 1), bias=False)
    )
    (lateral2): BasicConv3d(
      (conv1): Conv3d(128, 128, kernel_size=(3, 3, 3), stride=(1, 1, 1), padding=(1, 1, 1), bias=False)
    )
    (fc_bin): ParameterList(  (0): Parameter containing: [torch.float32 of size 33x384x128 (GPU 0)])
    (bn2): BatchNorm1d(128, eps=1e-05, momentum=0.1, affine=True, track_running_stats=True)
    (fc2): ParameterList(  (0): Parameter containing: [torch.float32 of size 33x128x74 (GPU 0)])
    (fc_view): ParameterList(  (0): Parameter containing: [torch.float32 of size 33x128x11 (GPU 0)])
  )
)
train_pid_num:74
cuda.device_count:4
model_parameters_num:3367689
DataParallel(
  (module): GMl4STA3glgemcomGRL(
    (Gem): GeM(p=6.5000, eps=1e-06)
    (ReverseLayer): GRL()
    (layer1): BasicConv3d(
      (conv1): Conv3d(1, 32, kernel_size=(3, 3, 3), stride=(1, 1, 1), padding=(1, 1, 1), bias=False)
    )
    (layer2): LocaltemporalAG(
      (conv1): Conv3d(32, 32, kernel_size=(3, 1, 1), stride=(3, 1, 1), bias=False)
    )
    (glo1): BasicConv3d(
      (conv1): Conv3d(32, 64, kernel_size=(3, 3, 3), stride=(1, 1, 1), padding=(1, 1, 1), bias=False)
    )
    (glo2): BasicConv3d(
      (conv1): Conv3d(64, 128, kernel_size=(3, 3, 3), stride=(1, 1, 1), padding=(1, 1, 1), bias=False)
    )
    (glo3): BasicConv3d(
      (conv1): Conv3d(128, 128, kernel_size=(3, 3, 3), stride=(1, 1, 1), padding=(1, 1, 1), bias=False)
    )
    (attn1): STE2(
      (conv1): Conv2d(1, 1, kernel_size=(3, 3), stride=(1, 1), padding=(1, 1), bias=False)
      (conv2): Conv3d(1, 1, kernel_size=(3, 1, 1), stride=(1, 1, 1), padding=(1, 0, 0), bias=False)
    )
    (attn2): STE2(
      (conv1): Conv2d(1, 1, kernel_size=(3, 3), stride=(1, 1), padding=(1, 1), bias=False)
      (conv2): Conv3d(1, 1, kernel_size=(3, 1, 1), stride=(1, 1, 1), padding=(1, 0, 0), bias=False)
    )
    (attn3): STE2(
      (conv1): Conv2d(1, 1, kernel_size=(3, 3), stride=(1, 1), padding=(1, 1), bias=False)
      (conv2): Conv3d(1, 1, kernel_size=(3, 1, 1), stride=(1, 1, 1), padding=(1, 0, 0), bias=False)
    )
    (lateral1): BasicConv3d(
      (conv1): Conv3d(64, 128, kernel_size=(3, 3, 3), stride=(1, 1, 1), padding=(1, 1, 1), bias=False)
    )
    (lateral2): BasicConv3d(
      (conv1): Conv3d(128, 128, kernel_size=(3, 3, 3), stride=(1, 1, 1), padding=(1, 1, 1), bias=False)
    )
    (fc_bin): ParameterList(  (0): Parameter containing: [torch.float32 of size 33x384x128 (GPU 0)])
    (bn2): BatchNorm1d(128, eps=1e-05, momentum=0.1, affine=True, track_running_stats=True)
    (fc2): ParameterList(  (0): Parameter containing: [torch.float32 of size 33x128x74 (GPU 0)])
    (fc_view): ParameterList(  (0): Parameter containing: [torch.float32 of size 33x128x11 (GPU 0)])
  )
)
train_pid_num:74
cuda.device_count:4
model_parameters_num:3367689
DataParallel(
  (module): GMl4STA3glgemcomGRL(
    (Gem): GeM(p=6.5000, eps=1e-06)
    (ReverseLayer): GRL()
    (layer1): BasicConv3d(
      (conv1): Conv3d(1, 32, kernel_size=(3, 3, 3), stride=(1, 1, 1), padding=(1, 1, 1), bias=False)
    )
    (layer2): LocaltemporalAG(
      (conv1): Conv3d(32, 32, kernel_size=(3, 1, 1), stride=(3, 1, 1), bias=False)
    )
    (glo1): BasicConv3d(
      (conv1): Conv3d(32, 64, kernel_size=(3, 3, 3), stride=(1, 1, 1), padding=(1, 1, 1), bias=False)
    )
    (glo2): BasicConv3d(
      (conv1): Conv3d(64, 128, kernel_size=(3, 3, 3), stride=(1, 1, 1), padding=(1, 1, 1), bias=False)
    )
    (glo3): BasicConv3d(
      (conv1): Conv3d(128, 128, kernel_size=(3, 3, 3), stride=(1, 1, 1), padding=(1, 1, 1), bias=False)
    )
    (attn1): STE2(
      (conv1): Conv2d(1, 1, kernel_size=(3, 3), stride=(1, 1), padding=(1, 1), bias=False)
      (conv2): Conv3d(1, 1, kernel_size=(3, 1, 1), stride=(1, 1, 1), padding=(1, 0, 0), bias=False)
    )
    (attn2): STE2(
      (conv1): Conv2d(1, 1, kernel_size=(3, 3), stride=(1, 1), padding=(1, 1), bias=False)
      (conv2): Conv3d(1, 1, kernel_size=(3, 1, 1), stride=(1, 1, 1), padding=(1, 0, 0), bias=False)
    )
    (attn3): STE2(
      (conv1): Conv2d(1, 1, kernel_size=(3, 3), stride=(1, 1), padding=(1, 1), bias=False)
      (conv2): Conv3d(1, 1, kernel_size=(3, 1, 1), stride=(1, 1, 1), padding=(1, 0, 0), bias=False)
    )
    (lateral1): BasicConv3d(
      (conv1): Conv3d(64, 128, kernel_size=(3, 3, 3), stride=(1, 1, 1), padding=(1, 1, 1), bias=False)
    )
    (lateral2): BasicConv3d(
      (conv1): Conv3d(128, 128, kernel_size=(3, 3, 3), stride=(1, 1, 1), padding=(1, 1, 1), bias=False)
    )
    (fc_bin): ParameterList(  (0): Parameter containing: [torch.float32 of size 33x384x128 (GPU 0)])
    (bn2): BatchNorm1d(128, eps=1e-05, momentum=0.1, affine=True, track_running_stats=True)
    (fc2): ParameterList(  (0): Parameter containing: [torch.float32 of size 33x128x74 (GPU 0)])
    (fc_view): ParameterList(  (0): Parameter containing: [torch.float32 of size 33x128x11 (GPU 0)])
  )
)
train_pid_num:74
cuda.device_count:4
model_parameters_num:3367689
DataParallel(
  (module): GMl4STA3glgemcomGRL(
    (Gem): GeM(p=6.5000, eps=1e-06)
    (ReverseLayer): GRL()
    (layer1): BasicConv3d(
      (conv1): Conv3d(1, 32, kernel_size=(3, 3, 3), stride=(1, 1, 1), padding=(1, 1, 1), bias=False)
    )
    (layer2): LocaltemporalAG(
      (conv1): Conv3d(32, 32, kernel_size=(3, 1, 1), stride=(3, 1, 1), bias=False)
    )
    (glo1): BasicConv3d(
      (conv1): Conv3d(32, 64, kernel_size=(3, 3, 3), stride=(1, 1, 1), padding=(1, 1, 1), bias=False)
    )
    (glo2): BasicConv3d(
      (conv1): Conv3d(64, 128, kernel_size=(3, 3, 3), stride=(1, 1, 1), padding=(1, 1, 1), bias=False)
    )
    (glo3): BasicConv3d(
      (conv1): Conv3d(128, 128, kernel_size=(3, 3, 3), stride=(1, 1, 1), padding=(1, 1, 1), bias=False)
    )
    (attn1): STE2(
      (conv1): Conv2d(1, 1, kernel_size=(3, 3), stride=(1, 1), padding=(1, 1), bias=False)
      (conv2): Conv3d(1, 1, kernel_size=(3, 1, 1), stride=(1, 1, 1), padding=(1, 0, 0), bias=False)
    )
    (attn2): STE2(
      (conv1): Conv2d(1, 1, kernel_size=(3, 3), stride=(1, 1), padding=(1, 1), bias=False)
      (conv2): Conv3d(1, 1, kernel_size=(3, 1, 1), stride=(1, 1, 1), padding=(1, 0, 0), bias=False)
    )
    (attn3): STE2(
      (conv1): Conv2d(1, 1, kernel_size=(3, 3), stride=(1, 1), padding=(1, 1), bias=False)
      (conv2): Conv3d(1, 1, kernel_size=(3, 1, 1), stride=(1, 1, 1), padding=(1, 0, 0), bias=False)
    )
    (lateral1): BasicConv3d(
      (conv1): Conv3d(64, 128, kernel_size=(3, 3, 3), stride=(1, 1, 1), padding=(1, 1, 1), bias=False)
    )
    (lateral2): BasicConv3d(
      (conv1): Conv3d(128, 128, kernel_size=(3, 3, 3), stride=(1, 1, 1), padding=(1, 1, 1), bias=False)
    )
    (fc_bin): ParameterList(  (0): Parameter containing: [torch.float32 of size 33x384x128 (GPU 0)])
    (bn2): BatchNorm1d(128, eps=1e-05, momentum=0.1, affine=True, track_running_stats=True)
    (fc2): ParameterList(  (0): Parameter containing: [torch.float32 of size 33x128x74 (GPU 0)])
    (fc_view): ParameterList(  (0): Parameter containing: [torch.float32 of size 33x128x11 (GPU 0)])
  )
)
train_pid_num:74
cuda.device_count:4
model_parameters_num:3367689
DataParallel(
  (module): GMl4STA3glgemcomGRL(
    (Gem): GeM(p=6.5000, eps=1e-06)
    (ReverseLayer): GRL()
    (layer1): BasicConv3d(
      (conv1): Conv3d(1, 32, kernel_size=(3, 3, 3), stride=(1, 1, 1), padding=(1, 1, 1), bias=False)
    )
    (layer2): LocaltemporalAG(
      (conv1): Conv3d(32, 32, kernel_size=(3, 1, 1), stride=(3, 1, 1), bias=False)
    )
    (glo1): BasicConv3d(
      (conv1): Conv3d(32, 64, kernel_size=(3, 3, 3), stride=(1, 1, 1), padding=(1, 1, 1), bias=False)
    )
    (glo2): BasicConv3d(
      (conv1): Conv3d(64, 128, kernel_size=(3, 3, 3), stride=(1, 1, 1), padding=(1, 1, 1), bias=False)
    )
    (glo3): BasicConv3d(
      (conv1): Conv3d(128, 128, kernel_size=(3, 3, 3), stride=(1, 1, 1), padding=(1, 1, 1), bias=False)
    )
    (attn1): STE2(
      (conv1): Conv2d(1, 1, kernel_size=(3, 3), stride=(1, 1), padding=(1, 1), bias=False)
      (conv2): Conv3d(1, 1, kernel_size=(3, 1, 1), stride=(1, 1, 1), padding=(1, 0, 0), bias=False)
    )
    (attn2): STE2(
      (conv1): Conv2d(1, 1, kernel_size=(3, 3), stride=(1, 1), padding=(1, 1), bias=False)
      (conv2): Conv3d(1, 1, kernel_size=(3, 1, 1), stride=(1, 1, 1), padding=(1, 0, 0), bias=False)
    )
    (attn3): STE2(
      (conv1): Conv2d(1, 1, kernel_size=(3, 3), stride=(1, 1), padding=(1, 1), bias=False)
      (conv2): Conv3d(1, 1, kernel_size=(3, 1, 1), stride=(1, 1, 1), padding=(1, 0, 0), bias=False)
    )
    (lateral1): BasicConv3d(
      (conv1): Conv3d(64, 128, kernel_size=(3, 3, 3), stride=(1, 1, 1), padding=(1, 1, 1), bias=False)
    )
    (lateral2): BasicConv3d(
      (conv1): Conv3d(128, 128, kernel_size=(3, 3, 3), stride=(1, 1, 1), padding=(1, 1, 1), bias=False)
    )
    (fc_bin): ParameterList(  (0): Parameter containing: [torch.float32 of size 33x384x128 (GPU 0)])
    (bn2): BatchNorm1d(128, eps=1e-05, momentum=0.1, affine=True, track_running_stats=True)
    (fc2): ParameterList(  (0): Parameter containing: [torch.float32 of size 33x128x74 (GPU 0)])
    (fc_view): ParameterList(  (0): Parameter containing: [torch.float32 of size 33x128x11 (GPU 0)])
  )
)
train_pid_num:74
cuda.device_count:4
model_parameters_num:3367689
DataParallel(
  (module): GMl4STA3glgemcomGRL(
    (Gem): GeM(p=6.5000, eps=1e-06)
    (ReverseLayer): GRL()
    (layer1): BasicConv3d(
      (conv1): Conv3d(1, 32, kernel_size=(3, 3, 3), stride=(1, 1, 1), padding=(1, 1, 1), bias=False)
    )
    (layer2): LocaltemporalAG(
      (conv1): Conv3d(32, 32, kernel_size=(3, 1, 1), stride=(3, 1, 1), bias=False)
    )
    (glo1): BasicConv3d(
      (conv1): Conv3d(32, 64, kernel_size=(3, 3, 3), stride=(1, 1, 1), padding=(1, 1, 1), bias=False)
    )
    (glo2): BasicConv3d(
      (conv1): Conv3d(64, 128, kernel_size=(3, 3, 3), stride=(1, 1, 1), padding=(1, 1, 1), bias=False)
    )
    (glo3): BasicConv3d(
      (conv1): Conv3d(128, 128, kernel_size=(3, 3, 3), stride=(1, 1, 1), padding=(1, 1, 1), bias=False)
    )
    (attn1): STE2(
      (conv1): Conv2d(1, 1, kernel_size=(3, 3), stride=(1, 1), padding=(1, 1), bias=False)
      (conv2): Conv3d(1, 1, kernel_size=(3, 1, 1), stride=(1, 1, 1), padding=(1, 0, 0), bias=False)
    )
    (attn2): STE2(
      (conv1): Conv2d(1, 1, kernel_size=(3, 3), stride=(1, 1), padding=(1, 1), bias=False)
      (conv2): Conv3d(1, 1, kernel_size=(3, 1, 1), stride=(1, 1, 1), padding=(1, 0, 0), bias=False)
    )
    (attn3): STE2(
      (conv1): Conv2d(1, 1, kernel_size=(3, 3), stride=(1, 1), padding=(1, 1), bias=False)
      (conv2): Conv3d(1, 1, kernel_size=(3, 1, 1), stride=(1, 1, 1), padding=(1, 0, 0), bias=False)
    )
    (lateral1): BasicConv3d(
      (conv1): Conv3d(64, 128, kernel_size=(3, 3, 3), stride=(1, 1, 1), padding=(1, 1, 1), bias=False)
    )
    (lateral2): BasicConv3d(
      (conv1): Conv3d(128, 128, kernel_size=(3, 3, 3), stride=(1, 1, 1), padding=(1, 1, 1), bias=False)
    )
    (fc_bin): ParameterList(  (0): Parameter containing: [torch.float32 of size 33x384x128 (GPU 0)])
    (bn2): BatchNorm1d(128, eps=1e-05, momentum=0.1, affine=True, track_running_stats=True)
    (fc2): ParameterList(  (0): Parameter containing: [torch.float32 of size 33x128x74 (GPU 0)])
    (fc_view): ParameterList(  (0): Parameter containing: [torch.float32 of size 33x128x11 (GPU 0)])
  )
)
train_pid_num:74
cuda.device_count:4
model_parameters_num:3367689
DataParallel(
  (module): GMl4STA3glgemcomGRL(
    (Gem): GeM(p=6.5000, eps=1e-06)
    (ReverseLayer): GRL()
    (layer1): BasicConv3d(
      (conv1): Conv3d(1, 32, kernel_size=(3, 3, 3), stride=(1, 1, 1), padding=(1, 1, 1), bias=False)
    )
    (layer2): LocaltemporalAG(
      (conv1): Conv3d(32, 32, kernel_size=(3, 1, 1), stride=(3, 1, 1), bias=False)
    )
    (glo1): BasicConv3d(
      (conv1): Conv3d(32, 64, kernel_size=(3, 3, 3), stride=(1, 1, 1), padding=(1, 1, 1), bias=False)
    )
    (glo2): BasicConv3d(
      (conv1): Conv3d(64, 128, kernel_size=(3, 3, 3), stride=(1, 1, 1), padding=(1, 1, 1), bias=False)
    )
    (glo3): BasicConv3d(
      (conv1): Conv3d(128, 128, kernel_size=(3, 3, 3), stride=(1, 1, 1), padding=(1, 1, 1), bias=False)
    )
    (attn1): STE2(
      (conv1): Conv2d(1, 1, kernel_size=(3, 3), stride=(1, 1), padding=(1, 1), bias=False)
      (conv2): Conv3d(1, 1, kernel_size=(3, 1, 1), stride=(1, 1, 1), padding=(1, 0, 0), bias=False)
    )
    (attn2): STE2(
      (conv1): Conv2d(1, 1, kernel_size=(3, 3), stride=(1, 1), padding=(1, 1), bias=False)
      (conv2): Conv3d(1, 1, kernel_size=(3, 1, 1), stride=(1, 1, 1), padding=(1, 0, 0), bias=False)
    )
    (attn3): STE2(
      (conv1): Conv2d(1, 1, kernel_size=(3, 3), stride=(1, 1), padding=(1, 1), bias=False)
      (conv2): Conv3d(1, 1, kernel_size=(3, 1, 1), stride=(1, 1, 1), padding=(1, 0, 0), bias=False)
    )
    (lateral1): BasicConv3d(
      (conv1): Conv3d(64, 128, kernel_size=(3, 3, 3), stride=(1, 1, 1), padding=(1, 1, 1), bias=False)
    )
    (lateral2): BasicConv3d(
      (conv1): Conv3d(128, 128, kernel_size=(3, 3, 3), stride=(1, 1, 1), padding=(1, 1, 1), bias=False)
    )
    (fc_bin): ParameterList(  (0): Parameter containing: [torch.float32 of size 33x384x128 (GPU 0)])
    (bn2): BatchNorm1d(128, eps=1e-05, momentum=0.1, affine=True, track_running_stats=True)
    (fc2): ParameterList(  (0): Parameter containing: [torch.float32 of size 33x128x74 (GPU 0)])
    (fc_view): ParameterList(  (0): Parameter containing: [torch.float32 of size 33x128x11 (GPU 0)])
  )
)
train_pid_num:74
cuda.device_count:4
model_parameters_num:3367689
DataParallel(
  (module): GMl4STA3glgemcomGRL(
    (Gem): GeM(p=6.5000, eps=1e-06)
    (ReverseLayer): GRL()
    (layer1): BasicConv3d(
      (conv1): Conv3d(1, 32, kernel_size=(3, 3, 3), stride=(1, 1, 1), padding=(1, 1, 1), bias=False)
    )
    (layer2): LocaltemporalAG(
      (conv1): Conv3d(32, 32, kernel_size=(3, 1, 1), stride=(3, 1, 1), bias=False)
    )
    (glo1): BasicConv3d(
      (conv1): Conv3d(32, 64, kernel_size=(3, 3, 3), stride=(1, 1, 1), padding=(1, 1, 1), bias=False)
    )
    (glo2): BasicConv3d(
      (conv1): Conv3d(64, 128, kernel_size=(3, 3, 3), stride=(1, 1, 1), padding=(1, 1, 1), bias=False)
    )
    (glo3): BasicConv3d(
      (conv1): Conv3d(128, 128, kernel_size=(3, 3, 3), stride=(1, 1, 1), padding=(1, 1, 1), bias=False)
    )
    (attn1): STE2(
      (conv1): Conv2d(1, 1, kernel_size=(3, 3), stride=(1, 1), padding=(1, 1), bias=False)
      (conv2): Conv3d(1, 1, kernel_size=(3, 1, 1), stride=(1, 1, 1), padding=(1, 0, 0), bias=False)
    )
    (attn2): STE2(
      (conv1): Conv2d(1, 1, kernel_size=(3, 3), stride=(1, 1), padding=(1, 1), bias=False)
      (conv2): Conv3d(1, 1, kernel_size=(3, 1, 1), stride=(1, 1, 1), padding=(1, 0, 0), bias=False)
    )
    (attn3): STE2(
      (conv1): Conv2d(1, 1, kernel_size=(3, 3), stride=(1, 1), padding=(1, 1), bias=False)
      (conv2): Conv3d(1, 1, kernel_size=(3, 1, 1), stride=(1, 1, 1), padding=(1, 0, 0), bias=False)
    )
    (lateral1): BasicConv3d(
      (conv1): Conv3d(64, 128, kernel_size=(3, 3, 3), stride=(1, 1, 1), padding=(1, 1, 1), bias=False)
    )
    (lateral2): BasicConv3d(
      (conv1): Conv3d(128, 128, kernel_size=(3, 3, 3), stride=(1, 1, 1), padding=(1, 1, 1), bias=False)
    )
    (fc_bin): ParameterList(  (0): Parameter containing: [torch.float32 of size 33x384x128 (GPU 0)])
    (bn2): BatchNorm1d(128, eps=1e-05, momentum=0.1, affine=True, track_running_stats=True)
    (fc2): ParameterList(  (0): Parameter containing: [torch.float32 of size 33x128x74 (GPU 0)])
    (fc_view): ParameterList(  (0): Parameter containing: [torch.float32 of size 33x128x11 (GPU 0)])
  )
)
train_pid_num:74
cuda.device_count:4
model_parameters_num:3367689
DataParallel(
  (module): GMl4STA3glgemcomGRL(
    (Gem): GeM(p=6.5000, eps=1e-06)
    (ReverseLayer): GRL()
    (layer1): BasicConv3d(
      (conv1): Conv3d(1, 32, kernel_size=(3, 3, 3), stride=(1, 1, 1), padding=(1, 1, 1), bias=False)
    )
    (layer2): LocaltemporalAG(
      (conv1): Conv3d(32, 32, kernel_size=(3, 1, 1), stride=(3, 1, 1), bias=False)
    )
    (glo1): BasicConv3d(
      (conv1): Conv3d(32, 64, kernel_size=(3, 3, 3), stride=(1, 1, 1), padding=(1, 1, 1), bias=False)
    )
    (glo2): BasicConv3d(
      (conv1): Conv3d(64, 128, kernel_size=(3, 3, 3), stride=(1, 1, 1), padding=(1, 1, 1), bias=False)
    )
    (glo3): BasicConv3d(
      (conv1): Conv3d(128, 128, kernel_size=(3, 3, 3), stride=(1, 1, 1), padding=(1, 1, 1), bias=False)
    )
    (attn1): STE2(
      (conv1): Conv2d(1, 1, kernel_size=(3, 3), stride=(1, 1), padding=(1, 1), bias=False)
      (conv2): Conv3d(1, 1, kernel_size=(3, 1, 1), stride=(1, 1, 1), padding=(1, 0, 0), bias=False)
    )
    (attn2): STE2(
      (conv1): Conv2d(1, 1, kernel_size=(3, 3), stride=(1, 1), padding=(1, 1), bias=False)
      (conv2): Conv3d(1, 1, kernel_size=(3, 1, 1), stride=(1, 1, 1), padding=(1, 0, 0), bias=False)
    )
    (attn3): STE2(
      (conv1): Conv2d(1, 1, kernel_size=(3, 3), stride=(1, 1), padding=(1, 1), bias=False)
      (conv2): Conv3d(1, 1, kernel_size=(3, 1, 1), stride=(1, 1, 1), padding=(1, 0, 0), bias=False)
    )
    (lateral1): BasicConv3d(
      (conv1): Conv3d(64, 128, kernel_size=(3, 3, 3), stride=(1, 1, 1), padding=(1, 1, 1), bias=False)
    )
    (lateral2): BasicConv3d(
      (conv1): Conv3d(128, 128, kernel_size=(3, 3, 3), stride=(1, 1, 1), padding=(1, 1, 1), bias=False)
    )
    (fc_bin): ParameterList(  (0): Parameter containing: [torch.float32 of size 33x384x128 (GPU 0)])
    (bn2): BatchNorm1d(128, eps=1e-05, momentum=0.1, affine=True, track_running_stats=True)
    (fc2): ParameterList(  (0): Parameter containing: [torch.float32 of size 33x128x74 (GPU 0)])
    (fc_view): ParameterList(  (0): Parameter containing: [torch.float32 of size 33x128x11 (GPU 0)])
  )
)
